strongest_model.pth (torch, 69655 bytes, 6 tensors)

linear1.weight f4 [64, 4]
000000 8d 42 31 bf 39 46 94 3d 55 d8 00 bf 0f 4e 1f 3f
       -0.69242173 0.072399564 -0.50330096 0.6222848
000010 fb fb ec be d0 66 8f 3d 60 6d 19 3e cb e4 66 be
       -0.46285996 0.07002032 0.1498313 -0.22548215
000020 d0 19 58 be 20 90 5c bd 5a 48 82 3e 00 d0 8d 3b
       -0.21103597 -0.053848386 0.25445825 0.004327774
000030 e8 66 af be a1 1c 48 be f3 c2 f4 3d 8c 69 44 3e
       -0.342582 -0.19542171 0.11951246 0.19180888
000040 82 b1 4e 3f ba f0 9e 3e 5f e9 00 3e 1c 31 22 3c
       0.80739605 0.31043035 0.12589024 0.009899404
000050 bb f4 e6 be 0a 62 77 be 2a 47 65 be 7c 4b e2 be
       -0.4510859 -0.24158493 -0.22390428 -0.44198215
000060 d9 75 a2 be fb 8b a6 be 1e 8a b8 3e ef c0 a0 bd
       -0.31730536 -0.32528672 0.36042875 -0.07849299
000070 5c 3a c1 be 00 11 bb 3e 80 8a d0 3b 9c 54 31 3e
       -0.37739837 0.36536407 0.0063641667 0.17317432
000080 67 33 7c bf 94 eb 10 3f 53 ac 35 3e 6e 9d 69 be
       -0.98515934 0.56609464 0.17741518 -0.22813961
000090 41 1e 1e be de 91 40 3f 4f 58 b7 3e 9c 9e cb 3e
       -0.15441228 0.75222576 0.35809562 0.39769447
0000a0 9e 74 34 bf 9f 13 36 3f 88 c6 d7 3d 72 bd ed 3e
       -0.70490444 0.7112369 0.10535914 0.46433598
0000b0 03 4e 3f bf 68 d5 30 3f 7e cd 9e 3d b9 19 fe 3e
       -0.7472841 0.6907563 0.07754038 0.49629
0000c0 aa 6f 64 be fb 3c be 3e 5a 0c e0 bc 50 c8 0c 3c
       -0.22308221 0.371559 -0.02734964 0.00859268
0000d0 33 05 79 be 88 0a d2 3e f1 9c a5 be 04 ed c1 3e
       -0.2431839 0.4102366 -0.323463 0.3787614
0000e0 52 11 7f 3f a4 df 42 be f5 64 61 be e7 58 ea 3e
       0.99635804 -0.19030625 -0.22011168 0.45770952
0000f0 d5 84 db bd 25 ca 59 3e 8b 08 e2 be 8b 86 fa bc
       -0.10718695 0.21268518 -0.44147143 -0.030581733
000100 c4 0d 51 be b0 5b b7 3d 68 0d de 3d e8 c2 28 3e
       -0.20415407 0.08953035 0.10842401 0.16480601
000110 35 4d 67 bf 0f b8 2a 3f 0f e8 b5 bd 3f 84 43 3c
       -0.90352184 0.666871 -0.08882152 0.011933385
000120 30 2b 05 bf 83 69 52 be 8e 07 b5 be 52 b4 b6 3d
       -0.52019024 -0.20548062 -0.35357326 0.08921112
000130 f6 6a 5c 3f 4f 71 85 be 64 d7 1c 3d 07 1a 2b 3e
       0.8610071 -0.2606301 0.03829135 0.16709147
000140 7a f0 e8 3e df 96 d7 bd 9c 57 d2 3e c5 ff 49 be
       0.4549597 -0.10526823 0.41082466 -0.19726475
000150 be dc 91 3f 20 46 92 be 33 ca 83 bd 46 1b de be
       1.139549 -0.28569126 -0.06435051 -0.43380183
000160 e6 da 6d 3f d4 c5 96 be a5 5f 65 3c 68 6d c5 bc
       0.9291214 -0.29447806 0.013999854 -0.02410002
000170 57 93 e8 be 04 81 0b 3e 71 2e 71 be 3d 68 db 3e
       -0.4542491 0.13623434 -0.23552872 0.42852965
000180 fc 6d 6d bf e0 42 45 3f 4a f6 2f be 79 14 01 3f
       -0.9274595 0.7705517 -0.17183796 0.50421864
000190 59 bf b4 3f dc 12 11 be b5 29 f1 bd 75 27 09 bf
       1.4120895 -0.1416735 -0.11775533 -0.5357583
0001a0 1d b7 e0 be 71 cf ff 3c f4 e3 8e be 26 a8 c7 bd
       -0.43889704 0.031226845 -0.2790829 -0.09748869
0001b0 a0 2d 3a be c2 1a ef be 80 ff 36 bc ec 93 72 be
       -0.18181467 -0.46700102 -0.011169314 -0.2368924
0001c0 f9 d7 3e 3f 56 de e4 3d f9 5b 09 bc 61 01 da bd
       0.745483 0.1117522 -0.008383744 -0.10644794
0001d0 d2 bc 0a bf 69 ee eb 3e 44 3a fd 3e b8 29 c8 3e
       -0.54194367 0.4608033 0.49458516 0.3909433
0001e0 12 1e 18 bf 3d b1 d2 3e ee ce 3c 3d 90 18 0b 3f
       -0.59420884 0.41150847 0.04609578 0.54334354
0001f0 ba 96 12 bf e1 37 05 3f fb 92 09 bf 3b 1b 05 3f
       -0.5726124 0.5203839 -0.537399 0.51994675
000200 b0 25 e7 be 45 5d 02 3e 97 95 bb be e1 fc 8d be
       -0.4514594 0.12730892 -0.36637565 -0.27731994
000210 59 fe b1 bd fa de 0e 3e 5f 97 dc be 5f aa c8 bd
       -0.08691091 0.13952246 -0.43084237 -0.09798121
000220 dd 48 92 be 20 d1 f6 3d 5b 23 40 3e c4 70 cc bd
       -0.28571215 0.12051606 0.18763487 -0.09982446
000230 79 c3 0b bf 29 49 be be 70 12 40 be bf 0a 80 3e
       -0.5459514 -0.37165192 -0.18757033 0.250082
000240 7e b5 e0 be 47 5c b4 3e e4 0e c0 3e fc 4a 66 3e
       -0.43888468 0.35226652 0.3751136 0.22489542
000250 24 52 7d 3f 3d 7a d1 3e 8d 60 e5 3d d2 50 af 3e
       0.9895346 0.40913573 0.11200056 0.34241349
000260 29 21 94 be 1b 90 15 3f 75 f1 a6 3d ab 14 6a 3e
       -0.2893155 0.5842301 0.08151523 0.22859447
000270 2a 25 63 3f c3 a0 9c bf 9a bd f9 be 41 8a 04 3e
       0.8872858 -1.223656 -0.48777467 0.12943365
000280 2b ab a3 bb 25 1f 70 3e 5f 50 a9 bd 34 a9 51 3d
       -0.00499477 0.2344938 -0.08267283 0.051186755
000290 88 58 c6 3f 98 d7 fc bd 9f b5 5d be 24 7b 74 be
       1.5495768 -0.12345809 -0.21651314 -0.238751
0002a0 d4 60 be be b8 c2 82 3e a0 26 d4 3c 14 69 52 3e
       -0.3718325 0.25539184 0.025897324 0.20547897
0002b0 c9 00 d3 be 5a 15 1a be 42 5a c9 bb e1 54 b1 3e
       -0.41211537 -0.15047207 -0.006144793 0.3463507
0002c0 72 85 80 3f 05 c9 08 be d9 10 27 3d 75 36 65 be
       1.0040724 -0.13357933 0.04078755 -0.22384055
0002d0 cb 88 1e bf dd 54 b3 3e 10 61 ce be 84 12 0b bf
       -0.6192748 0.35025683 -0.40308428 -0.5432513
0002e0 d7 11 a3 3f ee 42 93 bd 04 9d 58 3c 6d dd 70 3d
       1.2739819 -0.071905 0.013221029 0.058804918
0002f0 09 2c 35 bf 76 34 e1 3e a4 fb c0 3e dd cb b1 bd
       -0.7077032 0.43985337 0.37691987 -0.08681462
000300 73 27 cb be df 1c e9 3e ea 68 90 3d 29 a3 77 3d
       -0.39678535 0.4552984 0.07051261 0.060458336
000310 9e 23 9c be fc b2 4e be 00 4b 1a bd c4 46 86 be
       -0.30495924 -0.20185465 -0.03766918 -0.26225865
000320 04 ff dc be db c3 8d be ec 8d a2 bd a6 58 c8 be
       -0.4316331 -0.27688488 -0.07937226 -0.39130133
000330 88 a0 69 bf 39 0d 34 3f 4e 64 f3 be 3e 29 c5 3e
       -0.91260576 0.70332676 -0.47537464 0.38508028
000340 ab 8a 38 bf 93 6e 03 3f c7 48 79 3e de 81 89 3e
       -0.7208659 0.513406 0.24344169 0.26856893
000350 bc 94 6a 3f b1 a2 cb 3d 74 06 c6 3e 04 97 12 3f
       0.916332 0.0994314 0.38676798 0.5726168
000360 1f 44 47 bf e0 3d 20 3e ef 20 48 bd 83 ff d4 3e
       -0.7783832 0.15648603 -0.048859533 0.4160119
000370 90 0d 29 bf 20 d6 02 3c dc c2 13 3f 13 20 99 be
       -0.6603632 0.007985622 0.57719207 -0.29907283
000380 a4 85 0a be 9c 8d 05 3e 00 a3 d3 bb 80 63 b9 3e
       -0.13527542 0.13042301 -0.00645864 0.36208725
000390 df 82 47 bf 1c 48 21 3f 1f 4a c1 3e dd e3 ec 3e
       -0.7793407 0.63000655 0.37751862 0.46267596
0003a0 71 7a 75 bf 20 11 ad 3e c6 6c 26 bd 25 74 66 bd
       -0.95889956 0.33802128 -0.04063108 -0.056263108
0003b0 62 54 b2 3e 1e 5b 1e 3f 92 c1 b9 3e 90 90 6e be
       0.34830004 0.61857784 0.36280495 -0.23297334
0003c0 c9 74 f6 be 19 ec 69 be 27 47 dd 3e e1 f1 65 3d
       -0.48135975 -0.2284397 0.43218347 0.056138877
0003d0 95 a1 4d be 74 b4 48 bd 84 90 d2 3e aa a7 15 be
       -0.2008117 -0.04900022 0.41125882 -0.1461474
0003e0 49 c3 aa 3f 6a f6 11 3c 50 e2 80 bc 50 a9 ed bd
       1.3340846 0.008908847 -0.015732914 -0.116045594
0003f0 70 5a 80 bd 88 e7 b3 bd c0 26 68 bd ee f1 f8 3e
       -0.062672496 -0.087843955 -0.05667758 0.48622078

linear1.bias f4 [64]
000000 80 06 f5 3e ec e9 38 be 76 0f 8f be e0 58 b5 bd
       0.47856522 -0.18057984 -0.27941483 -0.08854842
000010 b1 a0 70 be b5 43 20 3f e0 20 83 be 46 5b 80 be
       -0.23498799 0.6260331 -0.2561102 -0.25069636
000020 5a 42 26 3f 1a 99 83 3e 85 6c 8a 3e 5a 12 5c 3e
       0.64944994 0.25702745 0.2703592 0.21491376
000030 0e c5 f4 3e b8 24 11 3f 73 65 08 be 3e ff 82 be
       0.4780659 0.56696653 -0.1331995 -0.2558536
000040 b0 ad c3 be 62 9b d4 3e 71 3d 84 be 6b de 97 bd
       -0.3821845 0.41524798 -0.25828126 -0.0741547
000050 51 3d d3 3c 29 0c 94 bd 62 94 3a bd f5 56 f0 3e
       0.025786074 -0.07228882 -0.045551665 0.46941343
000060 6f 0d 65 3e 2c 0e 54 be 87 e0 05 3f 98 9c af be
       0.22368406 -0.20708531 0.52295727 -0.3429916
000070 81 4f 5e be 85 5b 53 be 50 3e 3d 3f f5 9b 5b 3e
       -0.21710016 -0.2064038 0.73923206 0.21446212
000080 7f 45 00 3f 6a 4f db be 79 cb 30 3f 65 ba 1b be
       0.5010604 -0.42834026 0.69060475 -0.15207823
000090 75 2a ba 3e 9b 8d dc be fd 23 0e 3f 92 66 06 3e
       0.36360517 -0.43076786 0.55523664 0.13125065
0000a0 16 80 6a be 86 5c ee bd 1e d9 96 be 79 51 b5 3e
       -0.22900423 -0.11638741 -0.29462522 0.3541372
0000b0 45 85 bb bd fe 40 ae be 64 4e 95 be a8 ac 0d 3f
       -0.091562785 -0.3403396 -0.2916137 0.5534158
0000c0 19 7b 10 3f b4 ba 41 be c9 dd 2f 3d 27 e4 26 3f
       0.5643783 -0.18918878 0.04293612 0.6519188
0000d0 5d 20 7f 3e b0 76 13 be d5 c0 89 3e 2f 48 8b 3c
       0.2491469 -0.14400744 0.26904932 0.017002193
0000e0 f4 99 5c be e5 04 33 3e 6f 85 02 3f 0f 58 b0 be
       -0.21543103 0.17482336 0.50984854 -0.34442183
0000f0 16 0b e6 bc 1c 92 df be 3e 0e ac be 20 f7 81 be
       -0.028081458 -0.4366616 -0.33604616 -0.25383854

linear2.weight f4 [248, 64]
000000 71 8f 02 bd dc c8 86 3c d2 d0 bd bd 26 ef ec bd
       -0.031875078 0.0164532 -0.09268345 -0.115690514
000010 50 2c b9 3d 25 96 00 3d f1 2f 23 3e 7e 00 e6 bd
       0.09041655 0.03139319 0.15936257 -0.112305626
000020 a5 c9 11 3e 5e 44 3a 3e e6 0a de 3c 71 a5 ff bc
       0.14237078 0.18190143 0.027104806 -0.031206818
000030 3b 5b 7d 3e 23 98 4c 3e 63 14 28 bf 61 bf 0a 3e
       0.24741833 0.1997991 -0.6565611 0.13549568
000040 90 2e 50 3c 48 24 19 3e d6 5b c5 3c 5d c3 81 be
       0.012706414 0.14955246 0.024091642 -0.25344363
000050 69 ae c1 3e 3d e0 2f 3d 32 32 32 3c 70 44 97 3d
       0.37828377 0.04293846 0.010876225 0.073861
000060 a7 c3 c9 bd af 50 90 bd fd 64 ef 3d 1e 4e d3 3d
       -0.09851771 -0.07046639 0.11689184 0.10317634
000070 0d f1 4d 3d 39 88 71 3e ca 01 b6 3d 5d ba 00 bd
       0.050278712 0.23587121 0.0888706 -0.03142773
000080 27 a1 ca 3c c7 95 38 bd d9 c0 de 3d 79 9b 02 be
       0.024735047 -0.045064714 0.108766265 -0.1275462
000090 dc 46 25 3e 97 ce c9 bd 6b ff 03 3e b9 5a 5b bf
       0.16140312 -0.09853857 0.12890403 -0.85685307
0000a0 1b 9d 90 3d a1 a6 e4 be 28 fd 81 bd 31 d7 29 3e
       0.070612155 -0.44658378 -0.06347114 0.16585995
0000b0 6e b7 a6 3e ee 49 66 bd d7 6a 17 3e ec 5f 45 3e
       0.3256182 -0.05622285 0.1478685 0.19274873
0000c0 a3 fd 35 3e a4 17 a6 3d f8 26 e1 3d af 0c 07 3e
       0.17772536 0.08109978 0.10993761 0.13188432
0000d0 10 e9 10 3e 2f c5 d0 3e 9e 08 91 ba ef f5 91 3e
       0.14151406 0.4077544 -0.001106519 0.28507945
0000e0 30 83 e7 3c 7a c8 f7 3d 94 7f b5 bd af 91 e3 3d
       0.028260797 0.12098785 -0.08862224 0.11111771
0000f0 38 5a a2 3e 56 69 07 be ce 56 52 bd fe 35 f2 3d
       0.31709456 -0.13223776 -0.051352315 0.118267044
000100 66 b9 d9 bd a5 70 85 bd 52 6e 96 3d 09 ad 91 bd
       -0.10631065 -0.06515626 0.07345261 -0.07113082
000110 eb ec 82 bd b8 56 a9 bd b3 84 d7 bc 00 3a 44 bb
       -0.06392845 -0.082684934 -0.026308393 -0.0029941797
000120 67 18 ca 3d 8e d2 8c bd 73 b7 3a 3d 97 59 a0 3d
       0.09867936 -0.068760976 0.045585107 0.07829588
000130 bd 84 3d be 77 67 c1 bd dd f3 a4 3d 04 dd 82 3e
       -0.18507667 -0.094435625 0.08054326 0.25559247
000140 18 94 a9 3c 7b 18 ba bc 06 c0 ae bb 35 fb 44 bc
       0.0207005 -0.022716751 -0.0053329496 -0.012022783
000150 b8 3f b7 3d 22 9b 06 3c e6 57 ad 3c d1 a3 c8 bd
       0.089477 0.0082156975 0.021160077 -0.097968705
000160 8f 53 4c be 6a 3e b2 3d 4a ff 27 3c 48 a5 ac 3c
       -0.1995375 0.08703311 0.010253737 0.021074906
000170 ca cd 19 bd 9b 88 b2 3c 55 cb 14 3d 37 8d 36 3d
       -0.03754977 0.021793654 0.036326725 0.044568267
000180 c4 6e 50 3d fa 8b bd 3d 78 88 ff bd 44 db 0f 3e
       0.050886884 0.09255214 -0.12477201 0.14048487
000190 ae ea 32 be 4a 89 92 bd 06 16 ed bd 4d 56 10 3f
       -0.17472336 -0.07155092 -0.11576466 0.56381685
0001a0 9e f9 80 3d 19 45 d6 3c ca 76 d0 bd 0d da 18 bc
       0.06297611 0.026155995 -0.10178907 -0.009329331
0001b0 3f 49 a6 be d1 7f 71 3d a6 da 74 3e 85 45 8f bd
       -0.32477757 0.058959786 0.23911533 -0.06995682
0001c0 d8 d5 17 be b0 b5 62 bc 06 5c cc 3c 07 35 05 be
       -0.14827669 -0.013837263 0.024946224 -0.1300851
0001d0 30 71 db bd 12 ce 28 be 1b be 3f 3d c9 c8 1b bd
       -0.10714948 -0.1648486 0.046812158 -0.03803328
0001e0 2c 85 f5 bd 44 11 96 3d 7a 81 e9 3d 1c 90 11 3e
       -0.11988291 0.07327512 0.11401649 0.1421513
0001f0 28 0e 89 bb 33 b9 1b 3d d2 ae c1 3d d4 95 c3 3d
       -0.0041825958 0.038018417 0.094571725 0.09550062
000200 45 41 c1 3e 5d 03 e3 3b 2a 2d fa 3d 6d c1 3b 3c
       0.3774511 0.006927891 0.122156456 0.0114596905
000210 c2 eb 8f be 1e 5a 90 3e 4a 9c 35 3d 96 ce b6 bd
       -0.28109556 0.28193754 0.044338502 -0.08926122
000220 8e a2 ff 3e 88 1c 0d 3e 65 f4 cb 3e b9 ab 29 3f
       0.49928707 0.13780415 0.39834896 0.6627765
000230 ac d7 57 3e f1 1a 1b 3e 87 13 f3 be 66 cd 0c be
       0.21078366 0.15146996 -0.47475836 -0.13750228
000240 34 83 67 bd 95 2d 10 3f 1c 14 82 3d 09 ee fd bf
       -0.05652161 0.5631955 0.06351492 -1.9838268
000250 32 e1 54 be 7f 42 3a c0 39 cb e8 bf 6a 86 8b 3e
       -0.2078903 -2.9103086 -1.8187019 0.27250987
000260 20 ef 14 3f da b5 03 c0 74 f5 ec 3d fc 9d 19 bd
       0.58177376 -2.0579743 0.11570254 -0.03750418
000270 ec 0b 41 bf 95 81 3c 3e 60 f9 d8 3e 8e 8f 76 3e
       -0.75408816 0.18408807 0.42377758 0.240782
000280 0b f7 21 3e 2d 02 53 3d 39 47 9c 3e e2 25 7e bc
       0.15816896 0.051515747 0.3052309 -0.015511962
000290 fc 99 8c 3e 47 c8 4c bf 0d 6f 4d 3e e0 20 84 3e
       0.2746123 -0.799931 0.20061894 0.25806332
0002a0 c6 dd 1a be e5 01 4f bf 94 6f 02 bd 78 43 1f 3e
       -0.15123662 -0.80862266 -0.03184469 0.15553081
0002b0 e2 95 7d bf f9 f8 84 3d df 6a 8f c0 b8 df b8 3e
       -0.9905683 0.064928 -4.481796 0.36108184
0002c0 c0 02 87 3e d8 87 ea bd f1 10 09 3e 0b 37 c1 3e
       0.26369286 -0.114516914 0.13385369 0.37737307
0002d0 b4 e1 e7 3e 03 e4 35 bf 69 38 cd 3e 6a d8 1d 3e
       0.45289385 -0.71051043 0.400821 0.15414587
0002e0 70 bf a8 bd a9 16 04 3f 9b 99 4f 3f 5e 4e 67 be
       -0.08239639 0.51597077 0.8109376 -0.22588488
0002f0 ef 29 4c 3d a5 ce 9c 3d b1 6f 8f c0 08 f9 ed 3d
       0.04984468 0.07656602 -4.482384 0.116197646
000300 e5 97 3c bf f8 4a b7 3d 02 37 d7 3d 51 1c 63 bd
       -0.7366927 0.08949846 0.10508539 -0.055446927
000310 6c 1d 0d 3f 28 0f 2f be bb 26 16 3e 18 89 13 bd
       0.5512302 -0.17095625 0.14663212 -0.036019415
000320 28 bf 29 bf 1f 65 ac 3e 38 b3 00 bf a6 6c 11 bf
       -0.66307306 0.336709 -0.50273466 -0.5680641
000330 b3 4c 83 bc c5 7e 4c bd 74 8d a9 3e 36 be 9d be
       -0.016027784 -0.049925584 0.33115733 -0.30809182
000340 5c 9b 94 bd f8 fc ee be 6f 2f 2e 3d 8c e3 2a 3f
       -0.07256195 -0.46677375 0.042525705 0.6675346
000350 ed 56 4a 3e a8 c8 0b 3f ab 8e 21 3f d8 43 dd bd
       0.19759722 0.5460305 0.6310832 -0.10803956
000360 20 43 e0 bd 89 55 23 3f 35 1e dd bd 5a b0 db bd
       -0.10950303 0.6380239 -0.10796777 -0.10726996
000370 d1 a0 36 3f 37 f7 4b bf 36 5d 95 bd d8 97 9b be
       0.71339136 -0.79674095 -0.07293169 -0.30389285
000380 e3 91 b6 bd b8 4c a5 bd 67 2d 0d 3c b0 b4 93 bc
       -0.089145444 -0.080712736 0.008616782 -0.018030494
000390 cc f5 89 be 40 57 14 3f 72 dc da 3d a4 c1 d2 bd
       -0.2694534 0.5794563 0.10686578 -0.1029084
0003a0 55 a8 00 3c e9 7b ee 3e 74 42 2b 3d fe 2d 21 bd
       0.0078526335 0.4657891 0.04181142 -0.039350502
0003b0 aa 34 17 3f a4 42 e2 3d b8 b5 50 3f 74 0d a3 be
       0.59064734 0.11047867 0.8152728 -0.318462
0003c0 ed 2a d9 3a ac 83 72 bd 0e d7 31 3e 3b 49 eb be
       0.0016568579 -0.059207603 0.17367193 -0.45954308
0003d0 9e 43 3d bf 65 7a 3c 3f 6f d4 d8 3c 25 6f 5a bf
       -0.739313 0.7362426 0.026468484 -0.85325843
0003e0 7e 53 c6 bd af 0f 5b bf 1b 82 f1 be c4 9c 33 be
       -0.096838936 -0.85570806 -0.47169575 -0.1754027
0003f0 36 d9 bd be 37 23 22 bd a8 7d 3e 3f 6e ba e9 bd
       -0.3707978 -0.039584365 0.74410486 -0.11412512

linear2.bias f4 [248]
000000 16 1b 73 3e c7 6e bd bd 83 1e a5 3e 43 76 57 3d
       0.23740801 -0.09249645 0.3224984 0.052603018
000010 20 78 e4 3d c9 f5 c1 3e 40 15 3f bd 4b 1c 50 bd
       0.111557245 0.37882832 -0.046651125 -0.050808232
000020 1a ee c3 3d 0e fe 7b 3c 75 0c f8 bc fb d0 a0 3e
       0.09566899 0.015380396 -0.030279377 0.3140944
000030 cd f1 e1 bd eb ef 77 3e 64 d3 d5 bc b3 44 8a bc
       -0.11032448 0.24212615 -0.026101775 -0.016878461
000040 d1 06 b2 3e aa 50 ca 3e 34 6e 0e 3e fe a5 a3 3d
       0.34770826 0.39514667 0.13909227 0.07990645
000050 ce a7 13 3e cc f5 77 be fc 6d 59 3c 5c 2e fc 3d
       0.14419481 -0.24214858 0.013270851 0.1231353
000060 e5 5d be 3e 9b da ce bd 2a 5a bc 3b 0a c1 0f 3d
       0.3718101 -0.101002894 0.005748053 0.035096206
000070 58 34 08 be 41 fc 67 bd 9b eb 0f be bc 9d 90 3e
       -0.13301218 -0.056637052 -0.1405472 0.28245342
000080 20 10 60 be 44 ba 30 bd 67 a1 a9 3e ed 83 50 bd
       -0.21881151 -0.043146387 0.33130953 -0.050907064
000090 68 05 94 bd cc 30 ff bd dc 5b c1 3d 73 80 27 3e
       -0.07227594 -0.12460479 0.09441349 0.16357593
0000a0 14 ad c6 3c 47 f3 62 bc ab e7 8a 3e e5 dd d3 bd
       0.024252452 -0.013851947 0.27129874 -0.103450574
0000b0 59 be 0c 3e bf 3b a7 3e d1 44 63 bd b4 c4 b5 3e
       0.13744487 0.3266277 -0.05548555 0.35501635
0000c0 d0 2b fb 3e b0 95 af 3e 33 ef ad 3e 52 29 b0 bd
       0.49056864 0.3429389 0.33971557 -0.08601631
0000d0 6c b5 b3 bd 1f 85 25 3e 01 15 a6 3e c8 7a dd bd
       -0.08774838 0.16164063 0.324379 -0.10814434
0000e0 3b 43 36 3e 6f 1e f6 bd 2c 3b 00 3f c0 46 66 3e
       0.17799084 -0.120175235 0.5009029 0.22487926
0000f0 85 93 fa bb 37 71 1c be 7a c9 92 bc 8c 87 55 3b
       -0.00764698 -0.15277563 -0.017918337 0.0032582013
000100 02 3f df bd 9d 81 f0 3c 34 94 dd bd 16 13 a7 be
       -0.1090069 0.02935868 -0.10819283 -0.3263175
000110 b5 b1 17 3d b2 fd a8 be 85 59 9d bd 75 7b 62 bd
       0.03703471 -0.33006054 -0.0768309 -0.05529352
000120 da b7 d6 3d 3e 29 e9 3e 93 27 3e 3d ba 59 1b be
       0.10484286 0.45539278 0.04642446 -0.15170947
000130 1f 40 5c bd 24 9f b4 be b6 38 11 be db 12 94 3e
       -0.05377209 -0.35277665 -0.1418179 0.28920636
000140 57 80 c1 3e bb 99 93 be 75 b6 75 bd de 53 59 bd
       0.37793228 -0.28828225 -0.059988458 -0.053058498
000150 b5 06 86 3d a6 c9 c6 3d 43 64 63 bb 51 e1 fe bd
       0.06544248 0.0970643 -0.0034697212 -0.124453194
000160 44 af 8a 3b 3c 8e 08 bd a7 88 cb 3e a3 99 25 be
       0.004232319 -0.03333877 0.39752695 -0.16171889
000170 0e 8d 9e be 12 7a 9b bd 46 8d ba 3e 3e 95 b1 bd
       -0.3096699 -0.075916424 0.36435908 -0.08671044
000180 52 b1 1b bd 50 8f 0f be bb 52 c6 3e fc 5e 0d 3e
       -0.038010903 -0.14019513 0.38734993 0.13805765
000190 44 15 07 3f ed 15 0b be 2b 1a 30 bc 0c be 0b 3e
       0.52766824 -0.13582583 -0.010748426 0.13646716
0001a0 63 fe c2 bd f9 86 90 3e c7 d0 af 3e 26 35 c0 be
       -0.09521177 0.28227976 0.34338972 -0.3754055
0001b0 4d d2 c4 3d b1 c5 03 be 24 58 5f 3c e4 08 df 3c
       0.09610424 -0.12868382 0.013631854 0.027225919
0001c0 2e 26 80 bd cd e6 a4 bd f3 60 61 bd 71 bb d6 bc
       -0.06257282 -0.08051834 -0.0550241 -0.026212426
0001d0 e1 e4 df 3e 1f 19 63 be c8 34 7c 3e eb 6c e9 3e
       0.43729308 -0.22177552 0.2462951 0.4559091
0001e0 8b 06 53 3e 1c ce 7d 3e 0a 1a ba 3d 6d 62 09 3e
       0.20607965 0.24785656 0.09086998 0.13416453
0001f0 3a 40 8f 3e 59 f2 59 3d 7e 01 a3 3d ee aa b5 3b
       0.27978688 0.053209636 0.07959269 0.005544058
000200 f4 d7 e3 3c 6d af 99 3e 32 74 51 3d 6e f2 28 3d
       0.027812935 0.30016652 0.051136203 0.041246824
000210 09 50 d4 bc ed 54 c1 bd a2 79 e4 3d 21 bc 7a 3d
       -0.02591707 -0.094400264 0.11156012 0.06121457
000220 56 cd 39 bc 5b 89 4a 3d 30 53 f3 bc 75 97 40 be
       -0.01134046 0.0494474 -0.029702753 -0.18807776
000230 9a 75 c0 3e 79 08 0b bd 72 6e 9d 3b 0e 5e d5 bc
       0.37589723 -0.033943627 0.004804426 -0.026045825
000240 89 01 fc 3e cf 1e 63 3e 87 41 87 3e cb ee e4 bd
       0.4921992 0.22179721 0.2641718 -0.11178359
000250 fe 3c a1 bc 38 25 ec 3e 6c 18 af bd 26 3c a9 3e
       -0.019682404 0.46122146 -0.0854958 0.33053702
000260 88 20 ae bc f3 5c cb bc f9 40 6a bd 7d ca 87 3c
       -0.021255746 -0.024824595 -0.05719087 0.016576046
000270 df 62 a3 3e 32 47 d4 3d 5c e7 00 3c 31 d0 34 3e
       0.3191137 0.10365142 0.00786766 0.17657544
000280 53 0b 04 bf 50 23 90 3d 95 d8 1e be 71 78 b3 bd
       -0.5157978 0.07037985 -0.15512307 -0.08763207
000290 c5 d5 c9 bd cc 49 45 be 86 92 7a 3d 5a 4e bb 3d
       -0.098552264 -0.19266433 0.061174892 0.09145804
0002a0 0a 01 b8 3d 5d bd 1b 3d 12 24 c6 be 76 50 b7 3e
       0.08984573 0.038022388 -0.38699394 0.35803574
0002b0 3b 63 03 3f c9 8d 37 3c f6 4d f3 bd 96 3a a5 3d
       0.5132329 0.011203238 -0.11880104 0.08067815
0002c0 cc 06 0a 3f 06 44 b0 3d 18 8a 00 be 07 88 ad bd
       0.5391662 0.086067244 -0.12552679 -0.08473211
0002d0 42 65 69 bd db 8d c9 3d 0e 28 e3 3d e4 59 71 ba
       -0.056981333 0.0984151 0.11091624 -0.0009206815
0002e0 18 7d 73 3d 73 50 9e 3e ac 6d 9e be 4a 9b d5 bd
       0.05944547 0.30920753 -0.30943048 -0.1043001
0002f0 1e a5 0a be 32 ae 0d 3e 3a bd 73 3e e1 52 33 bd
       -0.1353955 0.13835981 0.23802653 -0.04378021
000300 7d cf 23 bd d0 b7 c1 be 4d 32 c5 3e f8 e9 cc 3c
       -0.039992798 -0.3783555 0.3851494 0.025013909
000310 07 87 af 3e f0 c6 a3 bd 5c f3 fc bd 40 9b 4e 39
       0.34282705 -0.07996929 -0.123511046 0.00019703526
000320 f3 ac dc be 9c f4 d5 bd 3c 17 f8 3e c0 99 a6 bc
       -0.431007 -0.10447046 0.48455226 -0.020336986
000330 b4 84 e9 3e 80 a5 72 bc 96 7a 95 3d e8 fe 4a bb
       0.45609057 -0.014809966 0.07298772 -0.003097469
000340 8c 2a dd bd 68 a7 8a bc 1f 63 10 3e 3e 9a 8c bc
       -0.10799131 -0.016925529 0.14100312 -0.017163392
000350 37 f5 17 3e 5a 6a 5a 3e 36 3b 83 3b 5b 3d a6 bd
       0.14839636 0.21329632 0.004004861 -0.081171714
000360 f8 56 88 3e 9a 9c ca 3e 67 30 c6 3c 55 2a d7 bd
       0.26628852 0.39572603 0.024193002 -0.10506121
000370 ec 78 a9 3d fc 5d 40 3e 97 14 8b 3d 0a 47 8e 3e
       0.08275017 0.18785852 0.067910366 0.27788574
000380 fe 03 a3 bd eb 94 cb 3e a1 b0 ff bd 92 94 c7 bc
       -0.07959746 0.39762053 -0.12484861 -0.024362836
000390 07 fe 9b bd 31 6d 51 bc a2 9a dd 3e 38 7d dc bd
       -0.07616811 -0.012782381 0.43282038 -0.10766071
0003a0 96 a9 62 3e 9a 5a 65 3e 41 89 03 be f3 c2 af 3d
       0.22135004 0.22397843 -0.12845327 0.085821055
0003b0 b9 e7 3d 3c 75 17 7d 3d 9b 73 7b 3d 3e 29 0f be
       0.0115908915 0.06178995 0.061389547 -0.13980576
0003c0 0a 8b 20 be 48 ba 85 3e 89 5d 91 3e d8 70 aa 3e
       -0.15678039 0.26118684 0.28391674 0.33289218
0003d0 06 75 3c be aa e0 11 be e3 04 c5 3c fe 9f 11 bc
       -0.18404016 -0.14245859 0.024050182 -0.008888243

linear3.weight f4 [2, 248]
000000 24 66 f1 3d 09 42 b6 3d be bc 26 bf 71 b2 16 bf
       0.1178706 0.08899314 -0.6513175 -0.5886603
000010 3a e4 47 3e 37 33 2f bf d8 ed eb bd 31 6d 1e bf
       0.19520655 -0.6843752 -0.115199745 -0.6188536
000020 6c ea 23 bf 8b 88 03 3d d8 74 39 3e 59 a1 14 bf
       -0.64029574 0.03211264 0.18110979 -0.58058697
000030 c6 cf c2 3d b5 9d 12 bf 74 2f cd 3d 46 3c 61 3e
       0.09512286 -0.5727189 0.100188166 0.21995649
000040 93 af 0a bf 26 2f 14 bf d8 4d 39 bf d0 9f 97 3e
       -0.54174155 -0.5788444 -0.72384405 0.29614115
000050 db 5e b8 3d 9f 9e 13 bd f7 f5 01 3e c8 00 a3 3d
       0.09002467 -0.036039945 0.12691484 0.079591334
000060 aa e5 0d bf 35 08 0f 3e 4e 32 21 3e a6 fd f2 3d
       -0.55428565 0.13967974 0.15741846 0.11864786
000070 cd 73 69 3e 6b 7a 6c 3e f8 cd 0d 3e 9c 7f 30 bf
       0.2279808 0.23093574 0.13848102 -0.68944716
000080 43 bd 39 bc 3f 2c ef 3a d0 45 2b bf f7 15 05 3d
       -0.011336627 0.0018247439 -0.669034 0.03249165
000090 15 67 5e 3e 67 aa 92 3e cf 8b 35 bf d4 76 4d bf
       0.2171901 0.28645632 -0.70916456 -0.8025944
0000a0 04 ee 0e bf dd cc fb be 96 f3 20 bf a4 de 54 3e
       -0.55831933 -0.49179736 -0.6287168 0.20788056
0000b0 ac f2 26 bf 24 1f 1c bf b4 33 9d bc fd f3 1b bf
       -0.6521404 -0.60985017 -0.019189693 -0.6091917
0000c0 1f 7b 12 bf ad 6d 15 bf 7f 87 14 bf ec 09 fb bc
       -0.5721912 -0.58370477 -0.5801925 -0.03064438
0000d0 bc 6f c8 bb fd 5f 82 3e c0 a3 1a bf a0 02 35 3c
       -0.0061168354 0.25463858 -0.6040611 0.011047989
0000e0 f3 8a 1c bf 3f e2 1e 3e ab 90 23 bf d3 a0 32 bf
       -0.6114952 0.15515994 -0.6389262 -0.6977665
0000f0 66 2c f8 bc 04 01 3b 3e 11 3d 66 3d dd aa 14 3e
       -0.030294608 0.18262106 0.05621058 0.14518304
000100 37 7b 04 3e 00 63 10 3e e9 7c d4 3d dc 00 39 3e
       0.12937628 0.14100266 0.10375387 0.18066734
000110 d7 e7 9d be f9 af e5 3d ed d9 21 3e af 63 80 3c
       -0.30840942 0.11215205 0.15805788 0.015672533
000120 5c 31 21 bf c8 ce 23 bf ca f1 f1 3d 69 aa 1e 3c
       -0.6296594 -0.639874 0.11813696 0.009684184
000130 b7 94 67 3e bf 82 04 3e 49 ee 91 3d 81 55 38 bf
       0.22615324 0.129405 0.071255274 -0.7200547
000140 d5 ef 1b bf 6a c9 e3 3d 53 5c 71 bd ce d4 99 bc
       -0.6091283 0.11122401 -0.058925938 -0.018778231
000150 7e 4f cb bc ed 44 20 3e 76 7b 54 3e a5 17 29 3d
       -0.024818178 0.15651293 0.20750222 0.041282315
000160 3c 4e 0e 3e 48 09 94 be 82 d6 1f bf 28 d3 ce 3d
       0.13897032 -0.2891333 -0.6243669 0.100988686
000170 a6 ce 17 3e 67 89 0a 3b 08 a2 14 bf 8f 13 0a 3d
       0.14824924 0.0021139027 -0.5805974 0.03371006
000180 0f 12 aa 3e a0 ff e6 3d b8 ef 11 bf ae 19 19 3e
       0.33216903 0.11279225 -0.57006407 0.14951202
000190 b8 83 26 bf 28 59 68 3e 4d a8 70 bc 47 44 af 3d
       -0.65044737 0.2269026 -0.0146885635 0.08557945
0001a0 ca 7b d7 3d 51 4c 4c bf fd f6 18 bf 45 9b f0 3d
       0.10521658 -0.7980395 -0.59751874 0.11748365
0001b0 f4 f6 fa 3d a0 b6 bd bc 11 1f a8 bd b0 c1 0f 3e
       0.12254134 -0.023158371 -0.082090504 0.1403873
0001c0 34 84 3b 3e a0 ac f4 3d c8 1f 20 3e e4 3f 0b 3e
       0.1831215 0.11946988 0.15637124 0.13598591
0001d0 b9 c3 07 bf 73 61 13 bc 83 8d 39 bf 6c 35 13 bf
       -0.53033024 -0.008995402 -0.72481555 -0.5750339
0001e0 30 9a 25 bf e2 8e 1e bf 2f e9 a8 be 93 54 bf 3d
       -0.64688396 -0.6193677 -0.32990405 0.09342303
0001f0 2e 30 17 bf cb 36 54 bd 2e 12 cd 3c 15 11 5a 3e
       -0.5905789 -0.051810067 0.025033083 0.21295579
000200 14 b9 a8 be 0d 2c 1d bf 77 c1 ba 3d d0 f4 e8 3c
       -0.32953703 -0.6139534 0.09118932 0.028437048
000210 ee 04 27 3e 6a 9a 8e bc 84 db ab be c2 c3 83 3e
       0.16310474 -0.017407615 -0.33565915 0.2573529
000220 20 1c 6b 3e a3 91 55 bb b8 87 70 3d 4b 60 83 3d
       0.22959948 -0.0032588027 0.05872318 0.06414851
000230 55 96 21 bf e9 d1 91 3d c4 40 11 3d 67 92 77 3d
       -0.63120013 0.07120115 0.035462156 0.060442355
000240 07 ec 0d bf ba 80 2f bf 93 50 26 bf 0c d6 12 3a
       -0.55438274 -0.68555796 -0.64966697 0.00056013535
000250 c7 a0 80 3d d2 fc 23 bf 11 29 95 3b 7b 3e 37 bf
       0.06280666 -0.6405765 0.0045520146 -0.7157971
000260 bb f7 ef 3b b1 55 9d 3e 04 16 18 bf c1 38 a6 3c
       0.007323233 0.3072944 -0.59408593 0.020290734
000270 58 67 18 bf 17 5d 38 bf 7a 64 57 3e 7d 45 36 bf
       -0.5953269 -0.72017044 0.21034423 -0.7119978
000280 58 3c 38 3e e7 33 00 bf c1 6a 05 bd 5b 2f 15 bc
       0.1799177 -0.50079197 -0.03257251 -0.009105529
000290 b6 ad a6 3b 84 ec 05 bf 64 dc 09 3d 15 11 27 bf
       0.005086626 -0.5231402 0.033657447 -0.6526044
0002a0 f7 0f 2a 3d b3 09 ed 3d 03 36 c9 3d e9 c3 0f bf
       0.04151913 0.115741156 0.09824755 -0.5615831
0002b0 d1 2f 15 bf 52 ed 14 3e ca 2f 4c 3d e8 ee 61 3e
       -0.5827609 0.14543656 0.049850263 0.22063792
0002c0 f5 ba f1 be 5e e9 3b 3e 7b 83 e6 3d 26 f9 2e 3d
       -0.4721295 0.18350741 0.11255547 0.042718075
0002d0 db cd ab bc 5a d1 1b bf cc f4 df 3d 00 40 80 bd
       -0.020972183 -0.6086632 0.10935363 -0.06262207
0002e0 5c e8 6c 3e 6c 13 19 bf 88 71 91 3d 06 2e 77 3c
       0.23135513 -0.5979526 0.071017325 0.015086656
0002f0 b5 a3 89 3c 39 48 23 bf 5d ac 1f bf 29 32 0d 3e
       0.016801694 -0.6378208 -0.6237238 0.13788666
000300 96 7f 3d bc dd 19 0d 3e 3d 3d 10 bf 64 2c 55 3c
       -0.011566063 0.13779397 -0.5634344 0.013011072
000310 7b 4f 18 bf 9d 21 7c 3e ea 4b 1d 3e 30 00 28 3d
       -0.5949628 0.24622197 0.1536099 0.041015804
000320 72 75 18 3e 64 85 96 3d f4 cf 12 bf 26 be 48 3d
       0.14888552 0.07349661 -0.5734856 0.049009465
000330 e1 e2 0b bf b0 07 29 bf bf 08 89 3c 26 ac a0 3d
       -0.54643065 -0.66027355 0.016727803 0.07845335
000340 46 27 af 3c 22 2e 16 3e 2f da 1b bf 7f 47 0b 3e
       0.021381032 0.14666036 -0.60879797 0.13601492
000350 98 df 2c bf b2 fb 89 be 27 bf cc 3d 92 8b 41 bd
       -0.67528677 -0.2694984 0.09997397 -0.047252245
000360 28 da 25 bf 77 64 23 bf e3 7b 0c 3d ee a0 5b bc
       -0.64786005 -0.6382517 0.034297835 -0.013405068
000370 2a 88 b3 3d 62 6f 37 bf c3 5b 25 3e 96 46 1d bf
       0.087662056 -0.7165433 0.16148286 -0.6143583
000380 a1 8a 04 3e 7f a3 15 bf 58 d3 d0 be 5a b1 38 3e
       0.12943508 -0.584526 -0.40786242 0.18036404
000390 5b 24 8b 3b 9d a2 71 3e b9 a2 23 bf a8 84 c9 be
       0.0042462773 0.23597188 -0.6392017 -0.3935902
0003a0 8a 1c 32 bf b8 6e 46 bf ad 0c 12 bd 6f 34 8d 3e
       -0.695748 -0.77512693 -0.03565662 0.27579066
0003b0 22 5d 59 3d f5 74 1a 3e 93 c4 da 3d 8d f0 37 bf
       0.053067334 0.15083678 0.10682025 -0.71851426
0003c0 0d 09 96 3d 70 f0 19 bf bc 8f 18 bf 28 2e 39 bf
       0.07325945 -0.60132504 -0.5959432 -0.72336054
0003d0 4b 18 01 3e da 07 17 3d ea a2 9b 3d 80 cc e8 3d
       0.12606923 0.036872722 0.07599433 0.1136713
0003e0 46 23 61 be 9a a1 20 bd cf 67 21 bf 4c 93 f1 be
       -0.21986112 -0.039216615 -0.63049024 -0.4718269
0003f0 94 a0 02 3e 9e cb 20 bf 3a 05 da 3d 2c 55 06 bf
       0.12756568 -0.62810695 0.10645528 -0.5247371

linear3.bias f4 [2]
000000 28 e4 04 be 14 29 77 be
       -0.1297766 -0.24136764
